…
                                                                                                  
 drug_skip_con_1 (Conv1DTranspo  (None, None, 64)    8256        ['drug_emb[0][0]']               
 se)                                                                                              
                                                                                                  
 protein_skip_con_1 (Conv1D)    (None, None, 32)     7200        ['protein_emb[0][0]']            
                                                                                                  
 drug_global_pooled (GlobalMaxP  (None, 64)          0           ['drug_skip_con_1[0][0]']        
 ooling1D)                                                                                        
                                                                                                  
 protein_global_pooled (GlobalM  (None, 32)          0           ['protein_skip_con_1[0][0]']     
 axPooling1D)                                                                                     
                                                                                                  
 drug_protein_vec (Concatenate)  (None, 96)          0           ['drug_global_pooled[0][0]',     
                                                                  'protein_global_pooled[0][0]']  
                                                                                                  
 shared_layer_1 (Dense)         (None, 512)          49664       ['drug_protein_vec[0][0]']       
                                                                                                  
 dropout (Dropout)              (None, 512)          0           ['shared_layer_1[0][0]']         
                                                                                                  
 shared_layer_2 (Dense)         (None, 512)          262656      ['dropout[0][0]']                
                                                                                                  
 dropout_1 (Dropout)            (None, 512)          0           ['shared_layer_2[0][0]']         
                                                                                                  
 head_p1Ki (Dense)              (None, 64)           32832       ['dropout_1[0][0]']              
                                                                                                  
 head_p1IC50 (Dense)            (None, 64)           32832       ['dropout_1[0][0]']              
                                                                                                  
 head_p1Kd (Dense)              (None, 64)           32832       ['dropout_1[0][0]']              
                                                                                                  
 head_p1EC50 (Dense)            (None, 64)           32832       ['dropout_1[0][0]']              
                                                                                                  
 head_is_active (Dense)         (None, 64)           32832       ['dropout_1[0][0]']              
                                                                                                  
 head_qed (Dense)               (None, 64)           32832       ['dropout_1[0][0]']              
                                                                                                  
 p1Ki (Dense)                   (None, 1)            65          ['head_p1Ki[0][0]']              
                                                                                                  
 p1IC50 (Dense)                 (None, 1)            65          ['head_p1IC50[0][0]']            
                                                                                                  
 p1Kd (Dense)                   (None, 1)            65          ['head_p1Kd[0][0]']              
                                                                                                  
 p1EC50 (Dense)                 (None, 1)            65          ['head_p1EC50[0][0]']            
                                                                                                  
 is_active (Dense)              (None, 1)            65          ['head_is_active[0][0]']         
                                                                                                  
 qed (Dense)                    (None, 1)            65          ['head_qed[0][0]']               
                                                                                                  
==================================================================================================
Total params: 797,606
Trainable params: 797,606
Non-trainable params: 0
______________________________________________________________________________________
…
